(tensor([[[ … ), tensor(13))
SimpleCNN(
  (conv1): Conv2d(1, 16, kernel_size=(5, 5), stride=(1, 1), padding=(2, 2))
  (relu1): ReLU()
  (pool1): MaxPool2d(kernel_size=2, stride=2, padding=0, dilation=1, ceil_mode=False)
  (conv2): Conv2d(16, 32, kernel_size=(5, 5), stride=(1, 1), padding=(2, 2))
  (relu2): ReLU()
  (pool2): MaxPool2d(kernel_size=2, stride=2, padding=0, dilation=1, ceil_mode=False)
  (fc1): Linear(in_features=1568, out_features=120, bias=True)
  (fc2): Linear(in_features=120, out_features=24, bias=True)
)
(tensor([[[ … ), tensor(13))
SimpleCNN(
  (conv1): Conv2d(1, 16, kernel_size=(5, 5), stride=(1, 1), padding=(2, 2))
  (relu1): ReLU()
  (pool1): MaxPool2d(kernel_size=2, stride=2, padding=0, dilation=1, ceil_mode=False)
  (conv2): Conv2d(16, 32, kernel_size=(5, 5), stride=(1, 1), padding=(2, 2))
  (relu2): ReLU()
  (pool2): MaxPool2d(kernel_size=2, stride=2, padding=0, dilation=1, ceil_mode=False)
  (fc1): Linear(in_features=1568, out_features=120, bias=True)
  (fc2): Linear(in_features=120, out_features=25, bias=True)
)
epoch:  0  loss: 0.27040121
epoch:  1  loss: 0.26457347
epoch:  2  loss: 0.25112320
loss: 157.96908569
epoch:  0  loss: 0.19384226
[tensor([23, 10, 23,  6, 21,  5, 11,  4, 23, 15, 16,  4, 10,  2, 22, 19, 19,  8,
        18, 17,  1,  8,  4, 12, 14, 11,  4, 18,  0,  4,  0, 19, 12,  7,  4, 18,
        18, 24, 12, 13,  4,  6, 15,  7,  1, 14, 24, 15,  1, 24,  1,  3,  4, 16,
…
1, 5, 20, 13, 15, 15, 16, 17, 19, 4, 4, 18, 17, 12, 24, 14, 7, 14, 10, 8, 16, 12, 4, 1, 21, 7, 3, 21, 21, 17, 2, 15, 24, 6, 6, 0, 17, 18, 24, 19, 6, 14, 7, 12, 2, 14, 15, 21, 20, 12, 1, 12, 0, 2, 18, 4, 5, 7, 4, 8, 10, 1, 6, 24, 13, 20, 18, 20, 1, 19, 10, 17, 20, 5, 5, 10, 21, 6, 1, 0, 4, 4, 20, 16, 8, 1, 10, 4, 10, 0, 5, 7, 8, 12, 23, 13, 12, 21, 4, 17, 13, 10, 20, 7, 4, 17, 22, 19, 22, 0, 4, 4, 1, 12, 5, 15, 15, 24, 1, 3, 10, 7, 19, 16, 15, 5, 4, 8, 2, 20, 4, 12, 7, 15, 12, 21, 12, 6, 24, 3, 10, 2, 4, 2, 24, 6, 20, 21, 3, 6, 0, 12, 21, 19, 12, 15, 7, 24, 5, 21, 20, 14, 7]
SimpleCNN(
  (conv1): Conv2d(1, 16, kernel_size=(5, 5), stride=(1, 1), padding=(2, 2))
  (relu1): ReLU()
  (pool1): MaxPool2d(kernel_size=2, stride=2, padding=0, dilation=1, ceil_mode=False)
  (conv2): Conv2d(16, 32, kernel_size=(5, 5), stride=(1, 1), padding=(2, 2))
  (relu2): ReLU()
  (pool2): MaxPool2d(kernel_size=2, stride=2, padding=0, dilation=1, ceil_mode=False)
  (fc1): Linear(in_features=1568, out_features=120, bias=True)
  (fc2): Linear(in_features=120, out_features=25, bias=True)
)
SimpleCNN(
  (conv1): Conv2d(1, 16, kernel_size=(5, 5), stride=(1, 1), padding=(2, 2))
  (relu1): ReLU()
  (pool1): MaxPool2d(kernel_size=2, stride=2, padding=0, dilation=1, ceil_mode=False)
  (conv2): Conv2d(16, 32, kernel_size=(5, 5), stride=(1, 1), padding=(2, 2))
  (relu2): ReLU()
  (pool2): MaxPool2d(kernel_size=2, stride=2, padding=0, dilation=1, ceil_mode=False)
  (fc1): Linear(in_features=1568, out_features=120, bias=True)
  (fc2): Linear(in_features=120, out_features=25, bias=True)
)
SimpleCNN(
  (conv1): Conv2d(1, 16, kernel_size=(5, 5), stride=(1, 1), padding=(2, 2))
  (relu1): ReLU()
  (pool1): MaxPool2d(kernel_size=2, stride=2, padding=0, dilation=1, ceil_mode=False)
  (conv2): Conv2d(16, 32, kernel_size=(5, 5), stride=(1, 1), padding=(2, 2))
  (relu2): ReLU()
  (pool2): MaxPool2d(kernel_size=2, stride=2, padding=0, dilation=1, ceil_mode=False)
  (fc1): Linear(in_features=1568, out_features=120, bias=True)
  (fc2): Linear(in_features=120, out_features=25, bias=True)
)
SimpleCNN(
  (conv1): Conv2d(1, 16, kernel_size=(5, 5), stride=(1, 1), padding=(2, 2))
  (relu1): ReLU()
  (pool1): MaxPool2d(kernel_size=2, stride=2, padding=0, dilation=1, ceil_mode=False)
  (conv2): Conv2d(16, 32, kernel_size=(5, 5), stride=(1, 1), padding=(2, 2))
  (relu2): ReLU()
  (pool2): MaxPool2d(kernel_size=2, stride=2, padding=0, dilation=1, ceil_mode=False)
  (fc1): Linear(in_features=1568, out_features=120, bias=True)
  (fc2): Linear(in_features=120, out_features=25, bias=True)
)
SimpleCNN(
  (conv1): Conv2d(1, 16, kernel_size=(5, 5), stride=(1, 1), padding=(2, 2))
  (relu1): ReLU()
  (pool1): MaxPool2d(kernel_size=2, stride=2, padding=0, dilation=1, ceil_mode=False)
  (conv2): Conv2d(16, 32, kernel_size=(5, 5), stride=(1, 1), padding=(2, 2))
  (relu2): ReLU()
  (pool2): MaxPool2d(kernel_size=2, stride=2, padding=0, dilation=1, ceil_mode=False)
  (fc1): Linear(in_features=1568, out_features=120, bias=True)
  (fc2): Linear(in_features=120, out_features=25, bias=True)
)
epoch:  0 weighted average F1 Score: 0.9002789573268861
epoch:  0  loss: 164.20758057
epoch:  1 weighted average F1 Score: 0.8877063813423915
epoch:  1  loss: 18.39613152
epoch:  2 weighted average F1 Score: 0.8891435295300044
epoch:  2  loss: 15.88952541
epoch:  3 weighted average F1 Score: 0.8943423247325972
epoch:  3  loss: 10.01583862
epoch:  4 weighted average F1 Score: 0.9005583523264659
…
